…
python\"><pre class=\"language-python\"><code class=\"language-python\">model<span class=\"token punctuation\">.</span>summary<span class=\"token punctuation\">(</span><span class=\"token punctuation\">)</span></code></pre></div>\n<div class=\"gatsby-highlight\" data-language=\"text\"><pre class=\"language-text\"><code class=\"language-text\">Model: \"sequential_1\"\n_________________________________________________________________\nLayer (type)                 Output Shape              Param #   \n=================================================================\nconv2d_3 (Conv2D)            (None, 160, 160, 16)      448       \n_________________________________________________________________\nmax_pooling2d_3 (MaxPooling2 (None, 80, 80, 16)        0         \n_________________________________________________________________\nconv2d_4 (Conv2D)            (None, 80, 80, 32)        4640      \n_________________________________________________________________\nmax_pooling2d_4 (MaxPooling2 (None, 40, 40, 32)        0         \n_________________________________________________________________\nconv2d_5 (Conv2D)            (None, 40, 40, 64)        18496     \n_________________________________________________________________\nmax_pooling2d_5 (MaxPooling2 (None, 20, 20, 64)        0         \n_________________________________________________________________\nflatten_1 (Flatten)          (None, 25600)             0         \n_________________________________________________________________\ndense_2 (Dense)              (None, 512)               13107712  \n_________________________________________________________________\ndense_3 (Dense)              (None, 2)                 1026      \n=================================================================\nTotal params: 13,132,322\nTrainable params: 13,132,322\nNon-trainable params: 0\n_________________________________________________________________</code></pre></div>\n<p>모델을 만들었으니 학습시켜보자.</p>\n<div class=\"gatsby-highlight\" data-language=\"python\"><pre class=\"language-python\"><code class=\"language-python\">learning_rat
…
