…
python\"><pre class=\"language-python\"><code class=\"language-python\">model<span class=\"token punctuation\">.</span>summary<span class=\"token punctuation\">(</span><span class=\"token punctuation\">)</span></code></pre></div>\n<div class=\"gatsby-highlight\" data-language=\"text\"><pre class=\"language-text\"><code class=\"language-text\">Model: \"sequential_1\"\n_________________________________________________________________\nLayer (type)                 Output Shape              Param #   \n=================================================================\nconv2d_3 (Conv2D)            (None, 160, 160, 16)      448       \n_________________________________________________________________\nmax_pooling2d_3 (MaxPooling2 (None, 80, 80, 16)        0         \n_________________________________________________________________\nconv2d_4 (Conv2D)            (None, 80, 80, 32)        4640      \n_________________________________________________________________\nmax_pooling2d_4 (MaxPooling2 (None, 40, 40, 32)        0         \n_________________________________________________________________\nconv2d_5 (Conv2D)            (None, 40, 40, 64)        18496     \n_________________________________________________________________\nmax_pooling2d_5 (MaxPooling2 (None, 20, 20, 64)        0         \n_________________________________________________________________\nflatten_1 (Flatten)          (None, 25600)             0         \n_________________________________________________________________\ndense_2 (Dense)              (None, 512)               13107712  \n_________________________________________________________________\ndense_3 (Dense)              (None, 2)                 1026      \n=================================================================\nTotal params: 13,132,322\nTrainable params: 13,132,322\nNon-trainable params: 0\n_________________________________________________________________</code></pre></div>\n<p>ëª¨ë¸ì„ ë§Œë“¤ì—ˆìœ¼ë‹ˆ í•™ìŠµì‹œì¼œë³´ì.</p>\n<div class=\"gatsby-highlight\" data-language=\"python\"><pre class=\"language-python\"><code class=\"langua
…
span class=\"token punctuation\">(</span><span class=\"token punctuation\">)</span></code></pre></div>\n<div class=\"gatsby-highlight\" data-language=\"text\"><pre class=\"language-text\"><code class=\"language-text\">Model: \"vgg16\"\n_________________________________________________________________\nLayer (type)                 Output Shape              Param #   \n=================================================================\ninput_1 (InputLayer)         [(None, 160, 160, 3)]     0         \n_________________________________________________________________\nblock1_conv1 (Conv2D)        (None, 160, 160, 64)      1792      \n_________________________________________________________________\nblock1_conv2 (Conv2D)        (None, 160, 160, 64)      36928     \n_________________________________________________________________\nblock1_pool (MaxPooling2D)   (None, 80, 80, 64)        0         \n_________________________________________________________________\nblock2_conv1 (Conv2D)        (None, 80, 80, 128)       73856     \n_________________________________________________________________\nblock2_conv2 (Conv2D)        (None, 80, 80, 128)       147584    \n_________________________________________________________________\nblock2_pool (MaxPooling2D)   (None, 40, 40, 128)       0         \n_________________________________________________________________\nblock3_conv1 (Conv2D)        (None, 40, 40, 256)       295168    \n_________________________________________________________________\nblock3_conv2 (Conv2D)        (None, 40, 40, 256)       590080    \n_________________________________________________________________\nblock3_conv3 (Conv2D)        (None, 40, 40, 256)       590080    \n_________________________________________________________________\nblock3_pool (MaxPooling2D)   (None, 20, 20, 256)       0         \n_________________________________________________________________\nblock4_conv1 (Conv2D)        (None, 20, 20, 512)       1180160   \n_________________________________________________________________\nblock4_conv2 (Conv2D)        (None, 20, 20, 512)       2359808   \n_________________________________________________________________\nblock4_conv3 (Conv2D)        (None, 20, 20, 512)       2359808   \n_________________________________________________________________\nblock4_pool (MaxPooling2D)   (None, 10, 10, 512)       0         \n_________________________________________________________________\nblock5_conv1 (Conv2D)        (None, 10, 10, 512)       2359808   \n_________________________________________________________________\nblock5_conv2 (Conv2D)        (None, 10, 10, 512)       2359808   \n_________________________________________________________________\nblock5_conv3 (Conv2D)        (None, 10, 10, 512)       2359808   \n_________________________________________________________________\nblock5_pool (MaxPooling2D)   (None, 5, 5, 512)         0         \n=================================================================\nTotal params: 14,714,688\nTrainable params: 14,714,688\nNon-trainable params: 0\n_________________________________________________________________</code></pre></div>\n<p>18ì¸µìœ¼ë¡œ êµ¬ì„±ë˜ì–´ ìˆë‹¤.</p>\n<p>í•´ë‹¹ ì‚¬ì´íŠ¸ì—ì„œ ì „ë¬¸ì ì¸ ë‚´ìš©ì„ ë‹¤ë£¬ë‹¤.</p>\n<p><a href=\"https://neurohive.io/en/popular-networks/vg
…
